…
    Total/class  : 3258

Time taken: 148.397 sec
shape of X: (6516, 28, 5537)
shape of y: (6516,)

Shape of X      : (5212, 28, 5537)
Shape of train_X: (4169, 28, 5537)
Shape of valid_X: (1304, 28, 5537)

Class distributions:
  Train/Test: [2602, 2610]
  Validation: [656, 648]

n (no. train samples): 4169
m (num features)     : 28
o (length of seqs)   : 5537


Model: "sequential_1"
_________________________________________________________________
 Layer (type)                Output Shape              Param #   
=================================================================
 conv2d_2 (Conv2D)           (None, 28, 5537, 32)      2720      
                                                                 
 leaky_re_lu_2 (LeakyReLU)   (None, 28, 5537, 32)      0         
                                                                 
 max_pooling2d_2 (MaxPooling  (None, 14, 2769, 32)     0         
 2D)                                                             
                                                                 
 conv2d_3 (Conv2D)           (None, 14, 2769, 64)      6208      
                                                                 
 leaky_re_lu_3 (LeakyReLU)   (None, 14, 2769, 64)      0         
                                                                 
 max_pooling2d_3 (MaxPooling  (None, 7, 1385, 64)      0         
 2D)                                                             
                                                                 
 flatten_1 (Flatten)         (None, 620480)            0         
                                                                 
 dense_1 (Dense)             (None, 2)                 1240962   
                                                                 
=================================================================
Total params: 1,249,890
Trainable params: 1,249,890
Non-trainable params: 0
_________________________________________________________________

Validation
Number of validation samples: 1304
41/41 [==============================] - 38s 935ms/step - loss: 0.4754 - accuracy: 0.9532
…
