…
    Total samples: 7480

Time taken: 176.595 sec
shape of X: (7478, 28, 5537)
shape of y: (7478,)

Shape of X      : (5982, 28, 5537)
Shape of train_X: (4785, 28, 5537)
Shape of valid_X: (1496, 28, 5537)

Class distributions:
  Train/Test: [3000, 2982]
  Validation: [739, 757]

n (no. train samples): 4785
m (num features)     : 28
o (length of seqs)   : 5537

Model: "sequential"
_________________________________________________________________
 Layer (type)                Output Shape              Param #   
=================================================================
 conv2d (Conv2D)             (None, 28, 5537, 32)      2720      
                                                                 
 leaky_re_lu (LeakyReLU)     (None, 28, 5537, 32)      0         
                                                                 
 max_pooling2d (MaxPooling2D  (None, 14, 2769, 32)     0         
 )                                                               
                                                                 
 conv2d_1 (Conv2D)           (None, 14, 2769, 64)      6208      
                                                                 
 leaky_re_lu_1 (LeakyReLU)   (None, 14, 2769, 64)      0         
                                                                 
 max_pooling2d_1 (MaxPooling  (None, 7, 1385, 64)      0         
 2D)                                                             
                                                                 
 flatten (Flatten)           (None, 620480)            0         
                                                                 
 dense (Dense)               (None, 2)                 1240962   
                                                                 
=================================================================
Total params: 1,249,890
Trainable params: 1,249,890
Non-trainable params: 0
_________________________________________________________________


Number of validation samples: 1496
47/47 [==============================] - 42s 899ms/step - loss: 1.3562 - accuracy: 0.8924
…
