…
       3258  26790

Time taken: 128.348 sec
shape of X: (6008, 28, 5537)
shape of y: (6008,)


Shape of X      : (4806, 28, 5537)
Shape of train_X: (3844, 28, 5537)
Shape of valid_X: (1202, 28, 5537)

Class distributions:
  Train/Test: [518, 4288]
  Validation: [133, 1069]

n (no. train samples): 3844
m (num features)     : 28
o (length of seqs)   : 5537


Model: "sequential"
_________________________________________________________________
 Layer (type)                Output Shape              Param #   
=================================================================
 conv2d (Conv2D)             (None, 28, 5537, 32)      2720      
                                                                 
 leaky_re_lu (LeakyReLU)     (None, 28, 5537, 32)      0         
                                                                 
 max_pooling2d (MaxPooling2D  (None, 14, 2769, 32)     0         
 )                                                               
                                                                 
 conv2d_1 (Conv2D)           (None, 14, 2769, 64)      6208      
                                                                 
 leaky_re_lu_1 (LeakyReLU)   (None, 14, 2769, 64)      0         
                                                                 
 max_pooling2d_1 (MaxPooling  (None, 7, 1385, 64)      0         
 2D)                                                             
                                                                 
 flatten (Flatten)           (None, 620480)            0         
                                                                 
 dense (Dense)               (None, 2)                 1240962   
                                                                 
=================================================================
Total params: 1,249,890
Trainable params: 1,249,890
Non-trainable params: 0
_________________________________________________________________


Number of validation samples: 1202
38/38 [==============================] - 35s 921ms/step - loss: 4.5999 - accuracy: 0.7662
…
